python_backend/model.pth (torch, 54181 bytes, 9 tensors)

0.weight f4 [64, 34]
0.03966709 -0.03579244 -0.013580309 0.049642995 -0.34070456 -2.184806 -0.2585559 -0.16340281
0.6732983 -0.34010145 0.06622881 -0.23702751 0.14358203 0.17574511 -0.12190464 0.0032915196
0.14674795 0.20124343 0.20933518 -0.032083005 0.24555914 0.18696637 -0.24464737 0.15319306
0.13176654 -0.16452765 0.03956682 -0.0007984877 0.023501324 0.075989634 -1.4024609 0.028027708
-0.053033426 -2.086379 -0.07555171 -0.09819888 0.2671838 0.13283736 -2.2173574 -0.5403485
-0.32538903 -0.33389902 -0.17163514 0.40317845 -0.101099946 0.3172171 0.063344166 -0.038758684
0.3046693 0.05186302 -0.14001587 0.103934854 -0.18612619 -0.2819445 -0.06038103 -0.18932004
0.18894504 0.060549874 0.06413148 0.12371174 0.11150061 0.027564906 0.1370775 -0.13534777
-0.14053309 0.12961441 -0.16908242 -1.4629493 0.0026685232 -0.08974974 -0.055769283 -0.25942448
2.1529677 1.7197871 0.6216646 -0.013300169 0.567181 0.18403253 0.23491295 -0.1882594
-0.026355874 0.12802768 -0.14112206 0.21292327 0.058492113 -0.02916673 -0.04726691 0.06958328
-0.062219802 0.21204746 -0.036649615 0.091702215 -0.06906894 -0.039903786 -0.08526884 0.15876828
-0.03311226 0.107586786 0.23999766 -0.050738 -0.16878423 1.4830917 0.11245494 0.11545618
0.04612315 0.021697823 -0.6513886 0.5697331 0.77072567 -1.3493057 0.29005262 0.5195939
-0.20304601 0.019759638 0.09430943 0.19711566 0.062994376 0.12541375 0.24542594 0.117639214
0.22285323 0.2064128 0.045961402 -1.8842036 0.28613797 0.057878964 0.08897636 -0.14977877
-0.24044316 0.08250993 -0.33496764 -0.16104494 -1.272644 -0.07044575 -0.25839448 -0.12664452
0.10833885 0.12736534 -0.17335302 0.06758428 0.08206136 -0.11857341 0.110570036 0.04430512
-0.030670758 0.14317966 -0.058255613 0.01660393 -0.16874082 0.03793094 0.03914417 -0.088336036
0.13828677 0.121090695 -0.052889116 -0.18052709 -0.18468605 -0.07461767 0.116287865 -0.12956962
-0.17008057 0.041761108 0.004807008 -0.08668483 -0.036963068 -0.15514435 -0.09631951 -0.06846411
0.103952445 0.12453982 0.052994374 -0.03621449 0.0794267 0.41757494 -3.2549126 -0.6431227
-0.24339068 0.34070784 1.1215606 0.052605227 0.17920743 0.06559474 0.10403428 -0.07945214
-0.2257387 -0.10089593 0.033046015 0.033054005 0.12036152 -0.042661045 -0.029837908 -0.07110912
-0.12218927 0.13031407 0.04371411 -0.12766036 -0.00942177 -0.061023016 -0.09085431 0.11145961
-0.31441075 0.08675549 0.02304176 -1.0192308 -0.066091515 0.11941308 0.057007875 -0.07189084
-0.15951739 -0.18697919 -0.15202467 -0.034841936 -0.019423045 -0.049751893 -0.012823829 -0.099244185
-0.14062053 -0.18482992 -0.058629744 -0.14670706 0.0951796 -0.18785876 -0.16219366 -0.043276794
-0.1998387 0.17862687 -0.09549806 0.13749506 0.11401752 0.06856962 0.10365156 -0.21326102
0.08324941 -0.04851278 -0.17158598 -0.01881502 -0.20644948 -0.0246898 0.023721045 0.13585229
0.25344345 -0.35118395 3.1849766 -0.020344635 -0.9715566 0.64443463 0.25457144 -0.033610173
-0.10268097 0.17898382 -0.22556123 0.031094734 -0.12780547 -0.076646246 -0.14630951 -0.08988539
00000000: f579 223d 189b 12bd f27f 5ebc 7456 4b3d
00000010: d470 aebe ddd3 0bc0 7061 84be 1153 27be
00000020: 475d 2c3f c721 aebe f8a2 873d 57b7 72be
00000030: 2b07 133e 87f6 333e 24a9 f9bd 89b6 573b
00000040: 1845 163e c212 4e3e f65b 563e 7869 03bd
00000050: db73 7b3e 1d74 3f3e d784 7abe a4de 1c3e
00000060: cfed 063e f079 28be d110 223d 9a51 51ba
00000070: d985 c03c 74a0 9b3d d783 b3bf 5d9a e53c
00000080: 9439 59bd 3c87 05c0 dbba 9abd 7f1c c9bd
00000090: 51cc 883e 8406 083e 2fe9 0dc0 4754 0abf
000000a0: 6499 a6be d0f4 aabe 1fc1 2fbe 686d ce3e
000000b0: 7d0d cfbd 486a a23e 96ba 813d 6dc1 1ebd
000000c0: 9dfd 9b3e 516e 543d 5260 0fbe ccdb d43d
000000d0: dd97 3ebe 085b 90be 1952 77bd 1ddd 41be
000000e0: cf7a 413e 2503 783d 5e57 833d 955c fd3d
000000f0: 6f5a e43d cccf e13c 0b5e 0c3e 9b98 0abe
00000100: e8e7 0fbe a4b9 043e f123 2dbe ec41 bbbf
00000110: 64e2 2e3b b6ce b7bd 556e 64bd 49d3 84be
00000120: 39ca 0940 fc21 dc3f 6925 1f3f f4e8 59bc
00000130: c632 113f 0673 3c3e 058d 703e 12c7 40be
00000140: 46e8 d7bc b019 033e 4d82 10be 8f08 5a3e
00000150: 6d95 6f3d 11ef eebc f39a 41bd ae81 8e3d
00000160: 31da 7ebd f822 593e e81d 16bd 5fce bb3d
00000170: 0474 8dbd 2772 23bd 6ea1 aebd 2794 223e
00000180: b9a0 07bd 7656 dc3d f2c1 753e a6d2 4fbd
00000190: c6d5 2cbe f3d5 bd3f c74e e63d 4a74 ec3d
000001a0: a1eb 3c3d a2bf b13c 67c1 26bf 07da 113f
000001b0: 474e 453f 0db6 acbf c781 943e 1b04 053f
000001c0: 4beb 4fbe f7de a13c 4d25 c13d b0d8 493e
000001d0: 3203 813d 766c 003e f050 7b3e d4ec f03d
000001e0: a333 643e e15d 533e 0642 3c3d 952d f1bf
000001f0: ad80 923e 7e12 6d3d 3d39 b63d 9b5f 19be
00000200: bb36 76be f7fa a83d e180 abbe f7e8 24be
00000210: 00e6 a2bf dd45 90bd 484c 84be 1aaf 01be
00000220: c2e0 dd3d 0f6c 023e 7483 31be a169 8a3d
00000230: c90f a83d 9ed6 f2bd 8b72 e23d 4979 353d
00000240: 3e41 fbbc b09d 123e 709d 6ebd f704 883c
00000250: 65ca 2cbe 795d 1b3d a355 203d 86e9 b4bd
00000260: 0c9b 0d3e 66fe f73d 42a2 58bd 18dc 38be
00000270: 571e 3dbe 26d1 98bd 5528 ee3d e6ad 04be
00000280: 9a29 2ebe b20d 2b3d 1b84 9d3b d187 b1bd
00000290: 9666 17bd 29de 1ebe 2a43 c5bd e936 8cbd
000002a0: 05e5 d43d bc0e ff3d a110 593d a555 14bd
000002b0: 77aa a23d 62cc d53e 7d50 50c0 b0a3 24bf
000002c0: 683b 79be 4271 ae3e 4c8f 8f3f 9478 573d
000002d0: 2782 373e 8956 863d ed0f d53d ceb7 a2bd
000002e0: 0c28 67be 86a2 cebd 425b 073d a363 073d
000002f0: 1a80 f63d 59bd 2ebd a16e f4bc a9a1 91bd
00000300: 5e3e fabd 0d71 053e 910d 333d 66b9 02be
00000310: c55d 1abc 45f3 79bd d311 babd f044 e43d
00000320: 72fa a0be ddac b13d 13c2 bc3c 2876 82bf
00000330: fd5a 87bd d88e f43d 1781 693d 813b 93bd
00000340: 8758 23be 7977 3fbe 5bac 1bbe 6bb6 0ebd
00000350: 141d 9fbc a4c8 4bbd 0a1b 52bc 8940 cbbd
00000360: d4fe 0fbe 0e44 3dbe be25 70bd 603a 16be
00000370: 86ed c23d 0c5e 40be 1816 26be 0243 31bd
00000380: 84a2 4cbe f6e9 363e 7d94 c3bd 81cb 0c3e
00000390: 0482 e93d 3b6e 8c3d 4547 d43d 1961 5abe
000003a0: ab7e aa3d 56b5 46bd 3cb4 2fbe f521 9abc
000003b0: 7e67 53be 4342 cabc a352 c23c dd1c 0b3e
000003c0: 57c3 813e 62ce b3be a8d6 4b40 cba9 a6bc
000003d0: efb7 78bf abf9 243f 3057 823e d2aa 09bd
000003e0: 674a d2bd 8947 373e 86f9 66be 62ba fe3c
000003f0: 70df 02be b5f8 9cbd 29d2 15be d515 b8bd

0.bias f4 [64]
-0.21889532 -0.10810665 0.17615692 -0.012800699 0.017439691 0.036549717 0.018018946 0.1888819
0.14165412 -0.10346189 -0.088377275 -0.20897923 -0.093786895 -0.19108489 0.015792808 -0.15993066
-0.02708303 -0.109484464 -0.18752928 -0.10090731 0.10986089 0.09430553 0.21228744 -0.113506496
-0.09819122 0.028067652 0.15400769 0.056365307 0.037122533 0.1552242 0.1001533 -0.015549636
0.12620944 -0.06387673 0.05721038 -0.0866539 -0.013001893 -0.12763445 -0.066724844 -0.025388993
0.14235026 0.053973928 0.12799765 -0.059293237 -0.0946139 0.16631757 0.05199156 0.073998764
-0.09241247 0.060867343 -0.06479177 0.14768542 0.14122468 0.15094885 0.12880851 -0.1859893
-0.15697412 -0.11358538 -0.1539722 -0.11414078 -0.102087125 0.2122306 0.03157544 0.040893007
00000000: 1826 60be 0567 ddbd 7b62 343e 06ba 51bc
00000010: afdd 8e3c 28b5 153d 789c 933c 426a 413e
00000020: c70d 113e d4e3 d3bd 25ff b4bd a7fe 55be
00000030: 5813 c0bd c2ab 43be eb5f 813c ddc4 23be
00000040: 3bdd ddbc 6439 e0bd ad07 40be 7ea8 cebd
00000050: bffe e03d 4223 c13d e161 593e 1876 e8bd
00000060: 7a18 c9bd 22ee e53c 31b4 1d3e 4fdf 663d
00000070: cc0d 183d 18f3 1e3e 2c1d cd3d e7c3 7ebc
00000080: 0c3d 013e ced1 82bd 6e55 6a3d 9a77 b1bd
00000090: e405 55bc 9bb2 02be 09a7 88bd 94fc cfbc
000000a0: 44c4 113e c413 5d3d d111 033e 77dd 72bd
000000b0: efc4 c1bd 274f 2a3e 1af5 543d aa8c 973d
000000c0: c042 bdbd 0950 793d 8cb1 84bd d93a 173e
000000d0: 349d 103e 5692 1a3e 61e6 033e fb73 3ebe
000000e0: d3bd 20be 749f e8bd e3aa 1dbe a4c2 e9bd
000000f0: 0e13 d1bd fa52 593e 4055 013d 6d7f 273d

2.weight f4 [64, 64]
0.283049 -0.25643954 -0.029174121 0.104952365 -0.01524571 0.38689604 0.029119866 -0.6025451
-0.7171269 0.08022942 0.11979227 -0.47340354 0.018035306 0.06342509 -0.054672077 -0.072264016
-0.054360338 -0.17315371 -0.07311179 0.07138671 -1.9892521 -0.3936191 1.2048675 -0.1112712
0.034087926 -0.14582323 -0.114552796 0.1408614 -0.110836886 0.10883007 0.2121125 0.28427455
0.042146433 -0.05964175 0.20102939 0.2339172 -0.0058241487 -0.116201535 0.12820557 -0.4775752
-0.03258961 0.15362735 -0.3490953 -0.045438945 -0.08877497 -0.076549225 -0.051363457 0.038491223
-0.11200449 0.030209016 0.13102253 -0.35060892 -0.20156872 0.14028294 0.33856505 -0.38480246
0.0107118515 0.09564018 0.081143826 0.1613804 0.46876872 0.5720285 0.09462928 0.096904695
0.28253663 0.48294243 0.12006494 -0.69716716 0.064294994 0.12467458 -0.077510834 -0.39762524
0.3521225 -0.055089302 0.03904444 -2.7169912 0.021244615 -0.08362435 -0.9876937 0.007967591
-0.010272726 -0.19899634 0.28332055 -0.0017198622 1.6841407 0.078990616 1.4422597 0.103826076
0.11912562 -0.33368117 0.11052078 -0.33635408 -0.30516675 -0.10950307 -0.2571968 0.26920152
-0.11372261 -0.12038827 -0.69563943 0.37442765 -0.0077305734 0.03345722 -0.2375157 0.1594397
-0.57069886 -0.18046926 0.15246515 -0.041691065 -0.44591534 -0.22502264 0.31858566 -0.030553207
0.10090708 -2.3902357 0.008027545 0.101622194 0.27572724 -0.3113076 0.010599676 0.39675388
0.031554073 -2.6590464 0.12224911 0.09199171 -0.14983058 -0.013775189 0.005936891 0.0028826743
0.10459016 0.39305308 -0.13431463 -0.4252918 -0.054411653 -0.27765903 0.0828672 0.6288811
-0.42283314 0.6281581 -0.095460296 -1.7424419 -0.03699912 -0.12918133 0.04739629 0.011014283
0.08696397 -0.07753783 0.4989079 -0.020906715 1.1151143 -0.1457815 0.87549835 -0.047577396
-0.032983035 0.18684497 0.025251448 -0.106810994 0.095704496 -0.017077798 -0.5124731 -0.060546994
0.11569504 -0.063001305 0.047741998 -0.123727 0.011682242 0.06291671 0.09453375 -0.09842251
0.07382273 0.1847183 0.7748284 0.09769924 -0.54675364 0.02531363 -0.07737199 0.1272955
-0.030675342 -0.39994872 0.17851652 0.116532125 0.4128389 -0.20856045 0.53918046 0.0535526
-0.015187789 -0.07648301 -0.060714483 -0.22348821 -0.036544316 -0.11906705 0.05092806 0.09905015
-0.18360287 0.13318463 -0.24511828 -0.037381057 -0.008413643 -0.42065865 0.09950497 -0.12643972
0.2280795 0.108243935 0.02799648 0.1629619 0.0048014075 -0.045935124 0.069788896 -0.041102454
-0.0055871755 -0.24892096 -0.43890604 0.011499494 0.06390072 -0.13827771 -2.2638009 -0.08603129
0.027231425 -0.110861346 0.01945877 -0.1485905 0.036686063 -0.15115574 0.15313397 -0.1347907
-0.06185573 0.0017407238 0.15031153 0.25918496 0.09729208 0.05407837 -0.2405909 -0.1963251
0.14028148 -0.28835097 -0.03348764 0.11074497 0.027796168 0.025048358 -0.19944945 -0.08427113
-0.04020237 0.17729616 -0.09130462 0.17776813 0.5113636 0.05556772 0.14845853 0.12353233
0.06805135 0.038628332 -0.0002387464 -0.0614307 -0.31952557 -0.12133892 0.03716576 -0.07363339
00000000: cceb 903e 0b4c 83be 91fe eebc 44f1 d63d
00000010: 24c9 79bc 3d17 c63e c98c ee3c 6540 1abf
00000020: a195 37bf 524f a43d a655 f53d f361 f2be
00000030: c7be 933c 03e5 813d d4ef 5fbd 28ff 93bd
00000040: f2a8 5ebd 354f 31be a2bb 95bd 3233 923d
00000050: d09f febf 7188 c9be 1939 9a3f 28e2 e3bd
00000060: c89f 0b3d af52 15be a89a eabd f93d 103e
00000070: 73fe e2bd 4de2 de3d 0534 593e 6f8c 913e
00000080: bda1 2c3d e84a 74bd a6da 4d3e fe87 6f3e
00000090: 80d8 bebb 12fb edbd 5248 033e bd84 f4be
000000a0: af7c 05bd 7d50 1d3e 9fbc b2be 301e 3abd
000000b0: a7cf b5bd d7c5 9cbd 7d62 52bd f9a8 1d3d
000000c0: 9c62 e5bd e678 f73c c52a 063e 0383 b3be
000000d0: 0868 4ebe 55a6 0f3e 6658 ad3e d404 c5be
000000e0: c380 2f3c 00df c33d bc2e a63d e740 253e
000000f0: 7402 f03e 7670 123f ffcc c13d f875 c63d
00000100: a4a8 903e 3b44 f73e 9be4 f53d 8c79 32bf
00000110: 18ad 833d 6355 ff3d 00be 9ebd 8995 cbbe
00000120: 6649 b43e 52a5 61bd 10ed 1f3d 2fe3 2dc0
00000130: 3009 ae3c 3e43 abbd 7fd9 7cbf 808a 023c
00000140: f04e 28bc b2c5 4bbe 640f 913e 006d e1ba
00000150: ec91 d73f d5c5 a13d f79b b83f c4a2 d43d
00000160: 22f8 f33d 42d8 aabe b858 e23d 9a36 acbe
00000170: d13e 9cbe 2543 e0bd 4daf 83be c8d4 893e
00000180: 66e7 e8bd 208e f6bd 6d15 32bf fbb4 bf3e
00000190: c050 fdbb 700a 093d 5137 73be 2944 233e
000001a0: 5219 12bf efcc 38be d31f 1c3e 40c4 2abd
000001b0: 044f e4be 566c 66be a91d a33e b84a fabc
000001c0: 5fa8 ce3d 9ff9 18c0 f785 033c 4c1f d03d
000001d0: 1f2c 8d3e b663 9fbe 43aa 2d3c 5323 cb3e
000001e0: d83e 013d d12d 2ac0 be5d fa3d 2666 bc3d
000001f0: 306d 19be 55b1 61bc 408a c23b 40eb 3c3b
00000200: 5e33 d63d 413e c93e c689 09be d9bf d9be
00000210: c1de 5ebd 5329 8ebe 47b6 a93d 5afe 203f
00000220: 967d d8be f8ce 203f b080 c3bd 5608 dfbf
00000230: 648c 17bd 1c48 04be 9d22 423d 4075 343c
00000240: 2a1a b23d 27cc 9ebd db70 ff3e 8f44 abbc
00000250: 11bc 8e3f bf47 15be a920 603f 84e0 42bd
00000260: 3819 07bd 4a54 3f3e 20dc ce3c b9bf dabd
00000270: b800 c43d bde6 8bbc 7031 03bf 2000 78bd
00000280: 85f1 ec3d d406 81bd 1d8d 433d 9564 fdbd
00000290: e066 3f3c 7ada 803d e99a c13d be91 c9bd
000002a0: 5f30 973d cb26 3d3e 275b 463f 8a16 c83d
000002b0: 0cf8 0bbf 885e cf3c 3575 9ebd c059 023e
000002c0: db4a fbbc 14c6 ccbe 09cd 363e 65a8 ee3d
000002d0: 9f5f d33e df90 55be bb07 0a3f f959 5b3d
000002e0: 34d6 78bc 20a3 9cbd c0af 78bd 18da 64be
000002f0: 7eaf 15bd 6dd9 f3bd f199 503d ceda ca3d
00000300: 6402 3cbe 8d61 083e 4900 7bbe e11c 19bd
00000310: 60d9 09bc 9260 d7be 43c9 cb3d 6a79 01be
00000320: ac8d 693e ffae dd3d e058 e53c 7cdf 263e
00000330: 2055 9d3b 7826 3cbd 7bed 8e3d 0c5b 28bd
00000340: a014 b7bb 23e5 7ebe 4bb8 e0be 6068 3c3c
00000350: 61de 823d ac98 0dbe 1de2 10c0 2c31 b0bd
00000360: 7014 df3c 460b e3bd 0068 9f3c 1c28 18be
00000370: 2044 163d 92c8 1abe 27cf 1c3e 9306 0abe
00000380: 6f5c 7dbd 0029 e43a 44eb 193e e4b3 843e
00000390: 1241 c73d 4881 5d3d 765d 76be 7209 49be
000003a0: f3a5 0f3e bda2 93be 562a 09bd 42ce e23d
000003b0: cab4 e33c 3732 cd3c 7a3c 4cbe 5896 acbd
000003c0: 3eab 24bd 208d 353e ebfd babd d908 363e
000003d0: bae8 023f fa9a 633d 8305 183e 85fe fc3d
000003e0: 825e 8b3d be38 1e3d 0058 7ab9 c29e 7bbd
000003f0: db98 a3be 8a80 f8bd 203b 183d 1acd 96bd

2.bias f4 [64]
0.15912898 -0.15103509 0.1486336 -0.14616449 0.049053945 -0.21112645 -0.050612386 0.17103036
0.07066085 -0.12041266 -0.07574692 -0.078412235 0.15155621 0.13492608 0.028732337 -0.065669164
0.020874843 0.04901986 -0.049073767 -0.1896233 0.08068903 -0.08049256 0.10415124 0.04908454
-0.20234697 -0.2375818 -0.009221175 0.21466243 0.09136243 -0.0024306462 -0.04260219 -0.22188781
-0.008338659 -0.06843998 0.0699907 -0.20446016 -0.04616116 -0.11549855 0.016833734 -0.14264254
0.11611309 -0.0474696 -0.16374815 0.15010105 -0.38268903 0.055939276 0.0497763 -0.100571424
-0.107006475 0.037838873 -0.15556337 0.1562675 0.11273409 -0.031631526 0.0837223 -0.05939643
-0.20976122 -0.0027109191 0.020587806 -0.05929709 0.03843681 0.059904255 0.01042499 0.01852512
00000000: b5f2 223e f1a8 1abe 6833 183e 25ac 15be
00000010: caec 483d 8831 58be ef4e 4fbd 9522 2f3e
00000020: a3b6 903d ea9a f6bd 3421 9bbd 9896 a0bd
00000030: 8d31 1b3e 102a 0a3e 1460 eb3c 8e7d 86bd
00000040: b801 ab3c 0cc9 483d 9301 49bd 9c2c 42be
00000050: 4a40 a53d 49d9 a4bd 3f4d d53d df0c 493d
00000060: 0b34 4fbe a548 73be 6914 17bc 78d0 5b3e
00000070: 3a1c bb3d 7a4b 1fbb a27f 2ebd 8f36 63be
00000080: df9e 08bc 432a 8cbd 4957 8f3d 015e 51be
00000090: 7c13 3dbd 818a ecbd e6e6 893c e310 12be
000000a0: b3cc ed3d 7c6f 42bd 98ad 27be 17b4 193e
000000b0: d1ef c3be 9520 653d 3ce2 4b3d 64f8 cdbd
000000c0: 3626 dbbd effc 1a3d 014c 1fbe 9604 203e
000000d0: 21e1 e63d 0f90 01bd 9976 ab3d ac49 73bd
000000e0: a5cb 56be ada9 31bb c2a7 a83c 81e1 72bd
000000f0: eb6f 1d3d 2a5e 753d 94cd 2a3c fec1 973c

4.weight f4 [64, 64]
-0.01366478 0.10679586 0.36221245 -0.4578509 0.7068098 0.3790425 0.13628803 0.1905755
1.6478549 -0.13942017 0.13740948 0.028765514 -0.34032166 -1.7871151 -0.4628017 -0.03205285
-0.7240073 0.23486963 -0.036370307 -0.2710714 -0.17114222 -0.08530265 0.07213628 -0.054184135
-0.041777123 -0.014995538 0.100407206 -0.056087606 -0.23042828 -0.16291426 -0.100258 -0.09899787
-0.00506487 1.0842273 0.22017555 0.07424138 -1.5557189 0.023990503 -0.025457168 -0.04597948
-0.4826907 0.010276094 -0.08680265 0.38253403 -0.46755236 -0.10158041 -0.42540777 -2.7596922
-0.21579249 0.118106514 -0.031181961 0.055266224 0.035978537 0.0073009436 -0.17581217 0.1312654
-0.11886595 0.13744327 0.051190313 0.24393728 0.015435445 0.08681396 0.44006687 -0.24602549
-0.18605407 0.45566377 0.179326 0.5970998 -0.35114005 -0.5217056 -0.30391458 -0.12786555
-1.3030688 0.073299296 0.02478383 0.045933977 0.100237 -0.14060707 0.6004203 -0.13798957
-0.01159573 0.27113947 0.034383148 0.6657862 0.096762456 -0.056625254 0.23771407 0.39653975
0.11443823 0.066761054 -0.06492418 -1.0387175 -0.12470677 -0.4762253 -0.15231554 0.100782886
0.195319 -0.62635016 0.123884276 -0.008125663 0.8783253 -0.0619472 0.26633736 -0.06565664
0.06976698 -0.05388169 0.14661226 0.51045597 -0.13347225 -0.32931384 0.37084115 2.0736248
0.7803228 -0.07368134 -0.0007843507 0.083802156 0.39603603 0.57217354 0.116243206 -0.12671745
-0.02443018 0.044702426 -0.048944704 -0.17741886 -0.010316501 -0.54853636 0.98475367 0.36489445
-0.03598682 0.26712874 -0.29967403 0.31055617 -0.30591142 -1.8825843 -0.06568592 -2.941802
1.8692827 0.039771136 0.28426626 0.0043786764 0.10632082 0.104384474 -0.034252793 -0.05471855
-0.06957001 0.58905315 -0.08243135 -0.5248139 -0.84090513 0.26248384 -0.26064315 0.048749045
-0.08320516 0.03591852 0.23439975 -2.6040947 -0.6399343 0.632713 -2.6931915 0.0222867
0.0019508923 1.1060001 0.32680142 0.044985235 -1.2276943 0.027055278 0.16571397 0.011867103
0.14595881 0.08384496 -0.08723903 0.38311693 0.052382316 -0.015970916 0.37478995 -2.561345
-0.60489047 -0.4713102 -0.12463039 0.163856 0.34414566 0.42080498 -0.31703115 -0.05883996
0.08391369 0.10807566 0.16960739 0.020032264 -0.06645207 0.082871564 -0.020570815 0.3635619
-0.18174261 -0.5537846 0.06509205 0.44040158 -0.3023654 0.045787804 -0.14296097 -0.20925026
-0.07998762 0.039760392 0.0498678 -0.112187624 0.14386229 0.30994284 0.41315323 -0.032546952
-0.1317585 0.1850085 -0.07069133 -0.4333565 -0.15981643 -0.12746492 -0.048281554 0.26121944
-0.055069692 -0.0456299 -0.08158808 0.3827606 -0.051965274 0.192537 0.38438448 0.14366725
-0.013872034 -0.3211386 0.13029268 -0.020490697 1.1998141 0.05226336 0.24596022 -0.10052726
0.007138522 -0.01463601 -0.010729918 0.20746242 0.10646066 0.09375768 0.13533565 0.9201233
1.940256 -0.017373735 0.035136733 0.17529699 0.31042665 0.5389269 -0.22292213 -0.16775118
0.083359644 0.06945057 -0.21475142 -0.18917224 0.0019562773 -0.37006578 0.33512127 0.10191521
00000000: 3ee2 5fbc cab7 da3d e973 b93e 6f6b eabe
00000010: 7df1 343f dc11 c23e 178f 0b3e 3926 433e
00000020: e9ec d23f 29c4 0ebe 12b5 0c3e a8a5 eb3c
00000030: a43e aebe 30c0 e4bf 58f4 ecbe d949 03bd
00000040: 8b58 39bf aa81 703e 08f9 14bd dfc9 8abe
00000050: e83f 2fbe 28b3 aebd 30bc 933d 2ff0 5dbd
00000060: 7d1e 2bbd d8af 75bc 4ba2 cd3d 1ebc 65bd
00000070: 64f5 6bbe ffd2 26be 1154 cdbd 65bf cabd
00000080: 36f7 a5bb f6c7 8a3f b375 613e dd0b 983d
00000090: cc21 c7bf bb87 c43c 8d8b d0bc fb54 3cbd
000000a0: 3c23 f7be 105d 283c 96c5 b1bd 80db c33e
000000b0: 0663 efbe 6409 d0bd 0ccf d9be cc9e 30c0
000000c0: b5f8 5cbe d4e1 f13d 5071 ffbc d65e 623d
000000d0: 3b5e 133d c13c ef3b 1b08 34be 706a 063e
000000e0: fe6f f3bd eebd 0c3e efac 513d b2ca 793e
000000f0: f3e4 7c3c 84cb b13d 7250 e13e 1bee 7bbe
00000100: f584 3ebe c34c e93e 3ca1 373e 88db 183f
00000110: a1c8 b3be 808e 05bf b19a 9bbe 30ef 02be
00000120: f5ca a6bf f11d 963d 7507 cb3c 4425 3c3d
00000130: 0e49 cd3d 4dfb 0fbe 25b5 193f 234d 0dbe
00000140: 04fc 3dbc cbd2 8a3e 58d5 0c3d f770 2a3f
00000150: 652b c63d e2ef 67bd 516b 733e 4207 cb3e
00000160: 975e ea3d 05ba 883d f8f6 84bd b2f4 84bf
00000170: 4366 ffbd cdd3 f3be 9bf8 1bbe 4267 ce3d
00000180: b401 483e 7c58 20bf 0ab7 fd3d 8021 05bc
00000190: edd9 603f 59bc 7dbd 5f5d 883e fd76 86bd
000001a0: fee1 8e3d 0cb3 5cbd 8621 163e 3ead 023f
000001b0: f3ac 08be d39b a8be e4de bd3e 45b6 0440
000001c0: 3cc3 473f 3ee6 96bd e29c 4dba 77a0 ab3d
000001d0: 3cc5 ca3e f779 123f eb10 ee3d 38c2 01be
000001e0: cd21 c8bc e419 373d 3e7a 48bd 4aad 35be
000001f0: 8b06 29bc e16c 0cbf d118 7c3f 72d3 ba3e
00000200: ea66 13bd 19c5 883e e06e 99be 3801 9f3e
00000210: 6ca0 9cbe 86f8 f0bf 5786 86bd 7c46 3cc0
00000220: a844 ef3f 0fe7 223d 598b 913e 007b 8f3b
00000230: bbbe d93d 87c7 d53d a84c 0cbd 8f20 60bd
00000240: b97a 8ebd 30cc 163f c5d1 a8bd 345a 06bf
00000250: 8f45 57bf 4864 863e 0573 85be 14ad 473d
00000260: 7867 aabd 4c1f 133d 7d06 703e 7da9 26c0
00000270: bcd2 23bf 7bf9 213f 405d 2cc0 9992 b63c
00000280: 15b5 ff3a 6991 8d3f 8452 a73e 7042 383d
00000290: 1625 9dbf 08a3 dd3c ecb0 293e 3d6e 423c
000002a0: 3a76 153e e8b6 ab3d 60aa b2bd e727 c43e
000002b0: d78e 563d 70d5 82bc 78e4 bf3e 14ed 23c0
000002c0: 1ada 1abf 924f f1be 383e ffbd dec9 273e
000002d0: dc33 b03e c073 d73e e851 a2be 2b02 71bd
000002e0: f1da ab3d c656 dd3d 8fad 2d3e b41a a43c
000002f0: 0618 88bd 91b8 a93d 2084 a8bc c924 ba3e
00000300: bc1a 3abe d4c4 0dbf fb4e 853d 517c e13e
00000310: a3cf 9abe fe8b 3b3d 5c64 12be b345 56be
00000320: 8dd0 a3bd cbdb 223d 2e42 4c3d a0c2 e5bd
00000330: a350 133e d4b0 9e3e d288 d33e f44f 05bd
00000340: b3eb 06be de72 3d3e 9ec6 90bd e7e0 ddbe
00000350: eba6 23be 2a86 02be e1c2 45bd 8ebe 853e
00000360: c290 61bd 6be6 3abd a717 a7bd 33f9 c33e
00000370: 8ad9 54bd 6b28 453e 0bce c43e 821d 133e
00000380: 8747 63bc 476c a4be 726b 053e 1bdc a7bc
00000390: 8293 993f 1b12 563d ffdc 7b3e 3ce1 cdbd
000003a0: 43ea e93b e0cb 6fbc 8acc 2fbc 0771 543e
000003b0: 0c08 da3d 0704 c03d 6e95 0a3e 338d 6b3f
000003c0: 4f5a f83f 5d53 8ebc 89eb 0f3d 0e81 333e
000003d0: 3ef0 9e3e 1df7 093f b345 64be f7c6 2bbe
000003e0: 76b8 aa3d 1a3c 8e3d cce7 5bbe 5eb6 41be
000003f0: e334 003b 4379 bdbe 0495 ab3e ecb8 d03d

4.bias f4 [64]
-0.0014595605 0.077742666 -0.083019964 -0.020967338 0.03299932 -0.0192115 0.16821392 0.051892973
0.09987641 0.07531664 0.11559137 0.13535777 -0.19370289 -0.017502183 -0.17861834 -0.078929104
0.028192744 0.06547553 0.10649215 -0.120784424 0.10586745 -0.105146654 0.08464171 0.16724819
-0.23781224 -0.0001011901 0.08428482 -0.1893995 -0.0042900797 0.18273453 0.054902125 -0.12147008
-0.2391326 -0.21860145 0.07250632 0.02111056 0.13315137 -0.22986068 0.090801366 0.012082922
0.00082769105 -0.027906766 0.1049962 -0.053141065 0.0939443 -0.11776468 0.09887939 -0.112222075
-0.12911493 -0.07651065 0.007432319 0.1412836 -0.061545406 -0.18083508 -0.14186977 0.15708983
-0.02745091 -0.015487432 0.078842066 -0.12307674 -0.07444522 -0.013485057 -0.060788948 -0.20711675
00000000: b94e bfba 8c37 9f3d 5f06 aabd b2c3 abbc
00000010: 4c2a 073d 7061 9dbc 4540 2c3e ba8d 543d
00000020: 018c cc3d 9c3f 9a3d 2bbb ec3d 3a9b 0a3e
00000030: 0d5a 46be bd60 8fbc bae7 36be 95a5 a1bd
00000040: 78f4 e63c 0918 863d 8e18 da3d d35d f7bd
00000050: 09d1 d83d 2157 d7bd a258 ad3d 1c43 2b3e
00000060: 0d85 73be 0536 d4b8 859d ac3d f1f1 41be
00000070: cc93 8cbb c31e 3b3e 0de1 603d 4ec5 f8bd
00000080: 2ddf 74be 0fd9 5fbe 327e 943d 0ef0 ac3c
00000090: d558 083e 9960 6bbe 11f6 b93d 73f7 453c
000000a0: 68f9 583a bb9c e4bc 3f08 d73d 72aa 59bd
000000b0: df65 c03d 9c2e f1bd 4781 ca3d b0d4 e5bd
000000c0: b436 04be 9eb1 9cbd d08a f33b a6ac 103e
000000d0: 0917 7cbd d52c 39be 4f46 11be 28dc 203e
000000e0: bbe0 e0bc ffbe 7dbc f377 a13d a80f fcbd
000000f0: bc76 98bd 6ef0 5cbc d5fd 78bd 6a16 54be

6.weight f4 [32, 64]
0.13205068 -0.38300562 1.0202837 0.030082766 0.031774 0.87290543 2.1804645 0.009505918
0.31483576 -0.15361159 2.0970502 -0.73090416 0.060959585 -0.06872561 -0.6242359 0.01754476
-0.69557697 0.09233107 0.30930674 0.25695637 -0.04208882 0.020680794 -2.2634711 -0.04577243
0.0010297649 0.14888427 -0.19926174 -0.11358612 -3.919167 -0.35811782 -0.30810815 0.029182123
-0.07495915 0.038281746 0.05085399 0.010326666 0.6795905 0.51241225 0.10011378 -1.8375359
0.07871035 -0.009194966 0.17953889 -0.099917956 -0.014759232 -0.018696181 0.12778932 -0.09307044
-0.061488263 -0.021505728 0.26063251 -0.5596883 0.053536683 0.12082 0.044136092 -0.49282518
0.20192045 -0.07998142 0.37090468 -0.068345614 -0.6657301 -0.016819146 1.2466754 0.14162934
-0.04100003 -0.038899094 -0.037062347 -0.12266941 0.0013701697 -0.11606368 -0.07894814 -0.18577936
-0.13852452 -0.023603661 -0.0076862276 -0.012979712 0.041246146 0.0390033 0.0015655607 -0.06363713
-0.054362353 -0.027523682 -0.10513239 0.08274282 -0.040698156 -0.014635965 0.047066227 -0.016621217
-0.010901123 0.049873367 -0.042294666 -0.028493077 0.07745673 -0.051261794 -0.111270785 -0.09748052
-0.09512688 0.056000486 0.057134517 -0.05537414 0.08244951 -0.13170339 -0.20699863 0.041624516
0.02861025 -0.054098208 -0.07052724 0.09473201 0.032222986 -0.045185566 -0.096823804 0.0299443
0.009791508 0.11842558 0.006927141 -0.07443167 -0.1566636 -0.11145906 -0.050044805 -0.13966683
-0.049126722 -0.1473403 -0.08760993 -0.039127007 -0.026768882 -0.009156064 -0.08955382 -0.03882231
-0.69845754 0.24405527 -1.6168588 0.05586013 -0.12340308 -0.83059233 -1.2436764 -0.008464904
-0.84769934 -0.1712419 -1.7497643 0.6310296 -0.04715456 -0.021369562 -1.1143656 -0.79459924
0.3904053 -0.00037755657 -0.65996295 0.11509396 -1.1272963 -0.17652176 0.86972266 0.028506033
-0.050017644 -0.112125546 -0.42908943 0.06990231 4.116894 0.23480895 0.018919326 0.11052667
-0.07099596 -0.09805382 -0.0066214744 -0.319531 -1.1258218 -0.38738883 -0.31050205 0.5909301
-0.12994441 -0.20974806 -0.16688916 -0.007234245 0.082842335 -0.038103204 -0.05015685 0.033182755
0.042325526 0.09108646 0.13192672 1.3339833 -0.3542555 0.03851026 -0.054105226 0.5396247
-0.9791688 0.096500225 -0.103557825 -0.03364122 0.034309328 -0.73087645 -0.8056702 0.05371503
0.3840398 -0.5501621 1.64139 0.022790097 -0.078278765 1.1774011 2.2010326 0.10123695
0.45984423 0.0915719 2.1498342 -0.9409022 0.23619312 -0.10768984 -1.5468873 0.23573649
-0.8005834 0.019562304 0.4154768 0.23229729 0.15378177 0.037634693 -1.5585533 -0.09182396
-0.08010682 0.16716778 -0.029858546 0.013374992 -3.2012088 -0.36141244 -0.079922706 0.224352
-0.059374224 0.10547248 0.009487385 0.2868083 0.8615196 0.95199597 0.08341341 -1.2847711
-0.027813228 -0.04037234 0.27851442 0.14654979 -0.07390764 0.046656843 0.26587445 0.055752724
0.033883158 -0.08411914 0.4143785 -0.7415124 0.121386565 -0.15628408 0.0887722 -0.56412953
0.45533368 -0.03776773 0.25287116 0.03739496 -0.40150878 0.35453868 1.3518999 0.06674291
00000000: 4b38 073e 5019 c4be a898 823f 2270 f63c
00000010: 7425 023d bb76 5f3f bb8c 0b40 b6be 1b3c
00000020: 2732 a13e 5b4c 1dbe 1236 0640 891c 3bbf
00000030: c2b0 793d 03c0 8cbd edcd 1fbf 07ba 8f3c
00000040: 5511 32bf 1218 bd3d 745d 9e3e c98f 833e
00000050: 5465 2cbd c56a a93c b6dc 10c0 df7b 3bbd
00000060: 2df9 863a 1e75 183e 450b 4cbe d79f e8bd
00000070: a2d3 7ac0 385b b7be 5ac0 9dbe 590f ef3c
00000080: 2f84 99bd 52cd 1c3d 464c 503d 2d31 293c
00000090: a5f9 2d3f 732d 033f 7408 cd3d 6034 ebbf
000000a0: e432 a13d 7ca6 16bc 0bd9 373e c9a1 ccbd
000000b0: b5d0 71bc bc28 99bc 34db 023e b79b bebd
000000c0: 1edb 7bbd c82c b0bc a071 853e bc47 0fbf
000000d0: 4849 5b3d 7a70 f73d 0cc8 343d 9553 fcbe
000000e0: 3cc4 4e3e 4ccd a3bd 38e7 bd3e c9f8 8bbd
000000f0: 4a6d 2abf 4ec8 89bc 0f93 9f3f 4807 113e
00000100: a6ef 27bd a854 1fbd b0ce 17bd 1a3a fbbd
00000110: 4497 b33a cbb2 edbd 90af a1bd f23c 3ebe
00000120: 5fd9 0dbe 775c c1bc c0dc fbbb dca8 54bc
00000130: b8f1 283d edc1 1f3d 8033 cd3a 2f54 82bd
00000140: 0fab 5ebd 5879 e1bc a74f d7bd 1175 a93d
00000150: 1cb3 26bd b0cb 6fbc 84c8 403d 3829 88bc
00000160: a09a 32bc 0448 4c3d 2c3d 2dbd 506a e9bc
00000170: a2a1 9e3d e3f7 51bd f0e1 e3bd dea3 c7bd
00000180: e2d1 c2bd c460 653d e205 6a3d ffcf 62bd
00000190: 4adb a83d 41dd 06be 73f7 53be 787e 2a3d
000001a0: 0b60 ea3c 1596 5dbd 9670 90bd db02 c23d
000001b0: 40fc 033d 8014 39bd 8f4b c6bd c04d f53c
000001c0: 906c 203c 1c89 f23d 12fd e23b a26f 98bd
000001d0: 6c6c 20be a644 e4bd c8fb 4cbd d204 0fbe
000001e0: 1a39 49bd 60e0 16be d66c b3bd a443 20bd
000001f0: 6a4a dbbc 5103 16bc fe67 b7bd 2404 1fbd
00000200: 1dce 32bf a0e9 793e 3bf5 cebf 97cd 643d
00000210: c1ba fcbd b3a1 54bf ca30 9fbf 61b0 0abc
00000220: d302 59bf 095a 2fbe 47f8 dfbf 288b 213f
00000230: 2425 41bd 380f afbc 88a3 8ebf db6a 4bbf
00000240: 34e3 c73e c9f2 c5b9 55f3 28bf 62b6 eb3d
00000250: 3f4b 90bf 1fc2 34be 25a6 5e3f 7c85 e93c
00000260: 4ddf 4cbd 14a2 e5bd 9cb1 dbbe f128 8f3d
00000270: 98bd 8340 c271 703e b4fc 9a3c cf5b e23d
00000280: 5466 91bd 71d0 c8bd f4f8 d8bb 9199 a3be
00000290: ee1a 90bf d457 c6be 20fa 9ebe 3247 173f
000002a0: 2610 05be 32c8 56be fee4 2abe 3f0d edbb
000002b0: 3ea9 a93d 1b12 1cbd 4571 4dbd a4ea 073d
000002c0: 885d 2d3d 8a8b ba3d cc17 073e f7bf aa3f
000002d0: fa60 b5be efbc 1d3d 719d 5dbd d824 0a3f
000002e0: ceaa 7abf e9a1 c53d 2016 d4bd 60cb 09bd
000002f0: f087 0c3d b81a 3bbf 6740 4ebf 4b04 5c3d
00000300: dda0 c43e 6cd7 0cbf 1119 d23f 4cb2 ba3c
00000310: 9e50 a0bd 14b5 963f b8dd 0c40 5155 cf3d
00000320: b470 eb3e 0c8a bb3d e296 0940 f7de 70bf
00000330: 9cdc 713e 7e8c dcbd 6700 c6bf e864 713e
00000340: 09f3 4cbf 2041 a03c 60b9 d43e 57df 6d3e
00000350: f878 1d3e d626 1a3d ad7e c7bf 330e bcbd
00000360: 0b0f a4bd 082e 2b3e e999 f4bc c822 5b3c
00000370: 9be0 4cc0 0d0b b9be 84ae a3bd 88bc 653e
00000380: 6332 73bd f501 d83d fa70 1b3c 8ad8 923e
00000390: 8c8c 5c3f 02b6 733f a6d4 aa3d 6173 a4bf
000003a0: 91d8 e3bc 775d 25bd 7199 8e3e 2611 163e
000003b0: e45c 97bd 3f1b 3f3d b220 883e f85c 643d
000003c0: 11c9 0a3d a846 acbd 6b29 d43e c2d3 3dbf
000003d0: 8599 f83d ef08 20be 33ce b53d cb6a 10bf
000003e0: 7f21 e93e 56b2 1abd 5478 813e 752b 193d
000003f0: 8f92 cdbe 1886 b53e 0e0b ad3f 82b0 883d

6.bias f4 [32]
-0.0802874 -0.1396721 -0.03528014 -0.04694318 0.21926172 -0.21829464 0.62918997 -0.5171349
0.04461176 -0.106088445 -0.0955383 0.2164665 0.21826108 0.088290036 -0.0005223549 -0.15916151
-0.039680947 -0.08280951 -0.013567625 0.014741071 -0.05445362 -0.034067214 -0.04180748 -0.14838488
-0.061647803 -0.1116448 0.13595839 0.026630562 -0.14594804 -0.097752266 -0.027449219 -0.051206604
00000000: b86d a4bd 3406 0fbe e881 10bd 7e47 40bd
00000010: 2586 603e a188 5fbe 9812 213f f462 04bf
00000020: d2ba 363d e644 d9bd 96a9 c3bd 65a9 5d3e
00000030: d57f 5f3e 68d1 b43d a5ee 08ba 3cfb 22be
00000040: 7d88 22bd 0898 a9bd be4a 5ebc 8884 713c
00000050: c20a 5fbd 108a 0bbd 523e 2bbd 35f2 17be
00000060: 6882 7cbd 07a6 e4bd ad38 0b3e 5628 da3c
00000070: 6773 15be 5732 c8bd 2fdd e0bc 04be 51bd

8.weight f4 [1, 32]
1.1798955 -0.13753276 -1.7509278 1.4745951 12.713555 -0.11406828 5.511833 3.041277
4.4357514 1.5294001 -0.019429829 -2.2562795 -2.4331694 -1.6595962 1.15327 1.1632346
1.2638495 0.16193995 0.9440017 1.4900624 1.2617003 -1.5191078 0.18037471 -0.09629974
-0.13012794 -1.4936141 -1.8344572 1.4793141 0.029422516 0.15560453 1.2381815 -1.6618668
00000000: d106 973f 63d5 0cbe 671e e0bf 88bf bc3f
00000010: b96a 4b41 a19c e9bd f060 b040 48a4 4240
00000020: adf1 8d40 62c3 c33f 4e2b 9fbc e266 10c0
00000030: 0cb9 1bc0 a66d d4bf 5a9e 933f dfe4 943f
00000040: d2c5 a13f 96d3 253e 18aa 713f 5dba be3f
00000050: 657f a13f 2072 c2bf 26b4 383e cc38 c5bd
00000060: 4240 05be bf2e bfbf 7ecf eabf 2a5a bd3f
00000070: 7d07 f13c cb56 1f3e bb7c 9e3f 0db8 d4bf
